name: "VGG16"
force_backward: true
layer {
  name: "data"
  type: "Data"
  top: "data"
  top: "label"
  include {
    phase: TRAIN
  }

  transform_param {
    mirror: true
    crop_size: 224
    mean_value: 133.0
  }
  data_param {
    source: "qe_train_lmdb"
    batch_size: 64
    backend: LMDB
  }
}
layer {
  name: "data"
  type: "Data"
  top: "data"
  top: "label"
  include {
    phase: TEST
  }

  transform_param {
    mirror: false
    crop_size: 224
    mean_value: 103.939
    mean_value: 116.779
    mean_value: 123.68
  }
  data_param {
    source: "qe_test_lmdb"
    batch_size: 50
    backend: LMDB
  }
}
layer {
  bottom: "data"
  top: "conv1"
  name: "conv1"
  type: "Convolution"
  param {
    lr_mult: 1
    decay_mult: 1
  }
  param {
    lr_mult: 2
    decay_mult: 0
  }
  convolution_param {
    num_output: 512
    pad: 1
    kernel_size: 8
    weight_filler {
      type: "gaussian"
      std: 0.01
    }
    bias_filler {
      type: "constant"
      value: 0
    }
  }
}
layer {
  bottom: "conv1"
  top: "conv1"
  name: "relu1"
  type: "ReLU"
}
layer {
  bottom: "conv1"
  top: "pool1"
  name: "pool1"
  type: "Pooling"
  pooling_param {
    pool: MAX
    kernel_size: 4
    stride: 4
  }
}    
layer {
  bottom: "pool1"
  top: "fc1"
  name: "fc1"
  type: "InnerProduct"
  param {
    lr_mult: 1
    decay_mult: 1
  }
  param {
    lr_mult: 2
    decay_mult: 0
  }
  inner_product_param {
    num_output: 2048
    weight_filler {
      type: "gaussian"
      std: 0.005
    }
    bias_filler {
      type: "constant"
      value: 0.1
    }
  }
}
layer {
  bottom: "fc1"
  top: "fc2"
  name: "fc2"
  type: "InnerProduct"
  param {
    lr_mult: 1
    decay_mult: 1
  }
  param {
    lr_mult: 2
    decay_mult: 0
  }
  inner_product_param {
    num_output: 2
    weight_filler {
      type: "gaussian"
      std: 0.005
    }
    bias_filler {
      type: "constant"
      value: 0.1
    }
  }
}
layer {
  name: "accuracy_at_1"
  type: "Accuracy"
  bottom: "fc2"
  bottom: "label"
  top: "accuracy_at_1"
  accuracy_param {
    top_k: 1
  }
  include {
    phase: TEST
  }
}

layer {
  bottom: "fc2"
  bottom: "label"
  top: "loss"
  name: "loss"
  type: "SoftmaxWithLoss"
}
